…
col_names=['input_size', 'output_size', 'num_params'])\n</code></pre> <pre><code>X:  torch.Size([256, 1, 28, 28])\nY:  torch.Size([256])\nX:  torch.Size([256, 1, 28, 28])\nY:  torch.Size([256])\n\n===================================================================================================================\nLayer (type:depth-idx)                   Input Shape               Output Shape              Param #\n===================================================================================================================\nMNISTModel                               [256, 1, 28, 28]          [256, 10]                 --\n\u251c\u2500Sequential: 1-1                        [256, 1, 28, 28]          [256, 10]                 --\n\u2502    \u2514\u2500Sequential: 2-1                   [256, 1, 28, 28]          [256, 256]                --\n\u2502    \u2502    \u2514\u2500Flatten: 3-1                 [256, 1, 28, 28]          [256, 784]                --\n\u2502    \u2502    \u2514\u2500Linear: 3-2                  [256, 784]                [256, 256]                200,960\n\u2502    \u2502    \u2514\u2500ReLU: 3-3                    [256, 256]                [256, 256]                --\n\u2502    \u2502    \u2514\u2500Dropout: 3-4                 [256, 256]                [256, 256]                --\n\u2502    \u2514\u2500Sequential: 2-2                   [256, 256]                [256, 128]                --\n\u2502    \u2502    \u2514\u2500Linear: 3-5                  [256, 256]                [256, 128]                32,896\n\u2502    \u2502    \u2514\u2500ReLU: 3-6                    [256, 128]                [256, 128]                --\n\u2502    \u2502    \u2514\u2500Dropout: 3-7                 [256, 128]                [256, 128]                --\n\u2502    \u2514\u2500Linear: 2-3                       [256, 128]                [256, 10]                 1,290\n===================================================================================================================\nTotal params: 235,146\nTrainable params: 235,146\nNon-trainable params: 0\nTotal mult-adds (Units.MEGABYTES): 60.20\n===================================================================================================================\nInput size (MB): 0.80\nForward/backward pass si
…
  # print(Y_)\n    if i &gt;= 1:\n        break\n\ncifar_model = CIFARModel ()\nsummary(cifar_model,input_data=X_ , col_names =['input_size','output_size', 'num_params'])\n</code></pre> <pre><code>===================================================================================================================\nLayer (type:depth-idx)                   Input Shape               Output Shape              Param #\n===================================================================================================================\nCIFARModel                               [32, 3, 32, 32]           [32, 100]                 --\n\u251c\u2500Sequential: 1-1                        [32, 3, 32, 32]           [32, 256, 2, 2]           --\n\u2502    \u2514\u2500BuildingBlock: 2-1                [32, 3, 32, 32]           [32, 32, 16, 16]          --\n\u2502    \u2502    \u2514\u2500Sequential: 3-1              [32, 3, 32, 32]           [32, 32, 16, 16]          896\n\u2502    \u2514\u2500BuildingBlock: 2-2                [32, 32, 16, 16]          [32, 64, 8, 8]            --\n\u2502    \u2502    \u2514\u2500Sequential: 3-2              [32, 32, 16, 16]          [32, 64, 8, 8]            18,496\n\u2502    \u2514\u2500BuildingBlock: 2-3                [32, 64, 8, 8]            [32, 128, 4, 4]           --\n\u2502    \u2502    \u2514\u2500Sequential: 3-3              [32, 64, 8, 8]            [32, 128, 4, 4]           73,856\n\u2502    \u2514\u2500BuildingBlock: 2-4                [32, 128, 4, 4]           [32, 256, 2, 2]           --\n\u2502    \u2502    \u2514\u2500Sequential: 3-4              [32, 128, 4, 4]           [32, 256, 2, 2]           295,168\n\u251c\u2500Sequential: 1-2                        [32, 256, 2, 2]           [32, 100]                 --\n\u2502    \u2514\u2500Flatten: 2-5                      [32, 256, 2, 2]           [32, 1024]                --\n\u2502    \u2514\u2500Dropout: 2-6                      [32, 1024]                [32, 1024]                --\n\u2502    \u2514\u2500Linear: 2-7                       [32, 1024]                [32, 512]                 524,800\n\u2502    \u2514\u2500ReLU: 2-8                         [32, 512]                 [32, 512]                 --\n\u2502    \u2514\u2500Linear: 2-9                       [32, 512]                 [32, 100]                 51,300\n===================================================================================================================\nTotal params: 964,516\nTrainable params: 964,516\nNon-trainable params: 0\nTotal mult-adds (Units.MEGABYTES): 501.70\n===================================================================================================================\nInput size (MB): 0.39\nForward/backward pass s
…
